…
Checking if there's any blank images...(this shouldn't return any errors)
ERROR: non zero found in X_Train at index 381
ERROR: non zero found in X_Train at index 711
ERROR: non zero found in X_val at index 227
ERROR: non zero found in X_val at index 230
From loadTiffFiles
(811, 1024, 1024, 32)
float16
(811,)
float16
(271, 1024, 1024, 32)
float16
(271,)
float16
Model: "sequential"
_________________________________________________________________
Layer (type)                 Output Shape              Param #   
=================================================================
conv2d (Conv2D)              (None, 341, 341, 32)      9248      
_________________________________________________________________
activation (Activation)      (None, 341, 341, 32)      0         
_________________________________________________________________
max_pooling2d (MaxPooling2D) (None, 113, 113, 32)      0         
_________________________________________________________________
conv2d_1 (Conv2D)            (None, 37, 37, 64)        18496     
_________________________________________________________________
activation_1 (Activation)    (None, 37, 37, 64)        0         
_________________________________________________________________
max_pooling2d_1 (MaxPooling2 (None, 12, 12, 64)        0         
_________________________________________________________________
flatten (Flatten)            (None, 9216)              0         
_________________________________________________________________
dense (Dense)                (None, 32)                294944    
_________________________________________________________________
activation_2 (Activation)    (None, 32)                0         
_________________________________________________________________
dense_1 (Dense)              (None, 16)                528       
_________________________________________________________________
activation_3 (Activation)    (None, 16)                0         
_________________________________________________________________
dense_2 (Dense)              (None, 1)                 17        
_________________________________________________________________
activation_4 (Activation)    (None, 1)                 0         
=================================================================
Total params: 323,233
Trainable params: 323,233
Non-trainable params: 0
_________________________________________________________________
None
train X type: float16
train Y type: float16
test X type: float16
test Y type: float16
After explicit declaration
train X type: float16
train Y type: float16
test X type: float16
test Y type: float16
…
